Model: "model"
_________________________________________________________________
 Layer (type)                Output Shape              Param #   
=================================================================
 input_1 (InputLayer)        [(None, 50, 28, 1)]       0         
                                                                 
 conv2d (Conv2D)             (None, 48, 26, 32)        320       
                                                                 
 max_pooling2d (MaxPooling2  (None, 24, 13, 32)        0         
 D)                                                              
                                                                 
 conv2d_1 (Conv2D)           (None, 22, 11, 64)        18496     
                                                                 
 max_pooling2d_1 (MaxPoolin  (None, 11, 5, 64)         0         
 g2D)                                                            
                                                                 
 conv2d_2 (Conv2D)           (None, 9, 3, 64)          36928     
                                                                 
 flatten (Flatten)           (None, 1728)              0         
                                                                 
 dense (Dense)               (None, 64)                110656    
                                                                 
 dropout (Dropout)           (None, 64)                0         
                                                                 
 batch_normalization (Batch  (None, 64)                256       
 Normalization)                                                  
                                                                 
 dense_1 (Dense)             (None, 36)                2340      
                                                                 
=================================================================
Total params: 168996 (660.14 KB)
Trainable params: 168868 (659.64 KB)
Non-trainable params: 128 (512.00 Byte)
_________________________________________________________________

Loss on training set = 0.012971192598342896
Accuracy on training set = 0.9961249828338623
…
